deeplearning/model.pth (torch, 306097 bytes, 7 tensors)

enc1.0.weight f4 [64, 3, 3, 3]
0.036048476 -0.0974366 0.18121235 -0.14210185 -0.052725103 0.07254596 0.100853354 -0.015631896
0.027577005 0.06913805 0.18592024 -0.05293952 0.1347904 -0.06741118 -0.086905405 0.026130838
0.055931512 -0.08397666 0.14766385 -0.17396665 0.08666564 0.12736727 0.07559505 -0.052690838
-0.04042268 -0.09791283 -0.07659701 0.18742895 0.11782589 0.11906315 -0.118150696 0.0012159363
0.091246694 0.0001985334 0.15190987 -0.05737436 0.059785806 -0.08827566 -0.15584558 -0.08892543
-0.17424662 0.16336894 -0.035573363 0.15466614 -0.17741114 -0.084193185 -0.06968918 -0.10081535
-0.18618369 0.14280988 -0.14873211 -0.038298044 0.17234255 -0.021422504 -0.17579906 -0.16277534
-0.093650796 0.043772884 -0.13818505 0.046348996 0.025697576 -0.07781631 -0.063641936 0.14099523
0.17518516 0.09951172 0.13783559 -0.1331356 0.02787412 0.055007085 0.09390355 0.13144515
-0.002110766 0.17569149 0.07743275 0.037318885 -0.008482508 -0.17417045 0.16508366 0.049141105
0.16962314 -0.14917372 -0.033179224 0.07279385 0.043452602 -0.17161715 -0.14360183 0.01063288
-0.038006786 0.1672139 -0.010070677 -0.030409217 -0.13932076 -0.042336907 0.04860448 -0.16577092
0.08157652 0.12642597 0.18672511 0.13479143 0.09600266 0.02265706 -0.17607954 0.14128627
-0.019303147 -0.11768488 0.15413678 0.04389239 0.17626989 0.08041113 -0.027392263 -0.09415069
0.12939438 0.1196601 -0.04141935 0.13914992 0.10557738 0.18111517 0.15859875 0.011721949
0.18064973 0.023140859 0.0797655 0.16383713 -0.017092781 0.13900363 -0.08005633 -0.13640812
-0.15258522 -0.06746338 -0.18034084 -0.13513847 0.18578953 0.18298212 0.035548747 0.08307046
-0.00930545 0.16940488 0.135281 -0.1632313 0.19329338 -0.01348646 -0.1431092 0.010314986
0.041016076 -0.03400389 -0.016760306 -0.1423612 -0.00038463846 0.12584884 0.085935414 0.06391715
-0.0011228226 0.14713913 0.1364021 -0.10816569 -0.10104682 -0.045246176 -0.12838615 -0.15444705
0.1550567 0.18761112 0.034287516 -0.17981184 0.15791391 -0.11029496 -0.15048674 -0.019095102
-0.028889019 -0.10078494 0.19183989 -0.0490153 0.14614584 0.07729165 -0.05269436 0.03603297
0.19172692 -0.17457521 0.03677158 -0.15883845 0.017880915 0.15473446 -0.19335127 -0.111202
-0.01791036 0.057053234 0.021556811 -0.1054975 -0.10797184 0.071007304 0.10340554 0.1065085
0.1718025 0.07464576 -0.06318939 -0.005916812 0.15282564 -0.07175631 0.11589802 -0.123198405
0.1292704 0.1617694 -0.015073686 -0.05348725 0.02500622 0.15800221 0.04444903 -0.14836696
-0.11727278 -0.18209852 -0.089030355 -0.12403388 0.027656777 -0.051653717 -0.15090275 -0.15529191
0.18445724 0.13876663 -0.17183216 0.11104894 -0.08243584 0.084080994 -0.10806332 -0.1195789
-0.026557945 0.16521905 -0.029292922 0.062186867 -0.10923074 -0.12084691 0.09876013 -0.07866284
-0.09898264 -0.103783324 -0.082348645 0.077575974 -0.016103616 0.18248321 -0.0935938 -0.08107835
-0.0062544458 0.028098647 -0.04486838 0.052001122 -0.13919206 0.10059096 -0.1679685 0.049294222
0.012885332 -0.00507928 -0.027532661 0.1886803 -0.18809284 0.10500453 -0.13587002 0.038034435
00000000: 91a7 133d d78c c7bd bb8f 393e 2683 11be
00000010: 47f6 57bd fa92 943d 348c ce3d 760e 80bc
00000020: 2ce9 e13c 4098 8d3d e061 3e3e 1cd7 58bd
00000030: 7f06 0a3e df0e 8abd 76fb b1bd 5710 d63c
00000040: 7118 653d f5fb abbd 3135 173e 5024 32be
00000050: c17d b13d 916c 023e 94d1 9a3d 59d2 57bd
00000060: 4192 25bd 8686 c8bd e5de 9cbd 60ed 3f3e
00000070: b34e f13d 61d7 f33d fef8 f1bd 0d60 9f3a
00000080: 8cdf ba3d 672d 5039 438e 1b3e 6001 6bbd
00000090: f6e1 743d dfc9 b4bd fc95 1fbe 891e b6bd
000000a0: b56d 32be 304a 273e 60b5 11bd cd60 1e3e
000000b0: 44ab 35be 7a6d acbd 33b9 8ebd 4778 cebd
000000c0: f0a6 3ebe c13c 123e 3b4d 18be 69de 1cbd
000000d0: 917a 303e 3f7e afbc ab04 34be 94ae 26be
000000e0: fdcb bfbd 324b 333d 6280 0dbe 72d8 3d3d
000000f0: b983 d23c 285e 9fbd b456 82bd 0e61 103e
00000100: bd63 333e cdcc cb3d c624 0d3e b354 08be
00000110: 4458 e43c 1c4f 613d 8150 c03d 8f99 063e
00000120: c754 0abb 78e8 333e 1095 9e3d b0db 183d
00000130: 38fa 0abc bd59 32be b10b 293e 2f48 493d
00000140: b0b1 2d3e ffc0 18be f0e6 07bd f114 953d
00000150: 5bfb 313d 68bc 2fbe 5c0c 13be 8835 2e3c
00000160: 01ad 1bbd 1f3a 2b3e 7bff 24bc c01c f9bc
00000170: 1aaa 0ebe 7769 2dbd 7e15 473d dabf 29be
00000180: 9711 a73d cf75 013e de34 3f3e c406 0a3e
00000190: 0b9d c43d 4c9b b93c 324e 34be 59ad 103e
000001a0: a221 9ebc c504 f1bd 08d6 1d3e 82c8 333d
000001b0: 1880 343e 97ae a43d bd65 e0bc 14d2 c0bd
000001c0: f67f 043e 5b10 f53d 56a7 29bd 517d 0e3e
000001d0: f438 d83d 4176 393e b667 223e 6b0d 403c
000001e0: 3efc 383e e691 bd3c 185c a33d ecc4 273e
000001f0: 2906 8cbc f856 0e3e 93f4 a3bd 92ae 0bbe
00000200: 4d3f 1cbe 3e2a 8abd 45ab 38be bd61 0abe
00000210: 9c3f 3e3e aa5f 3b3e 909b 113d d820 aa3d
00000220: e375 18bc 7978 2d3e 1a87 0a3e 1b26 27be
00000230: b3ee 453e 50f6 5cbc 388b 12be 3000 293c
00000240: 7900 283d aa47 0bbd e94c 89bc 22c7 11be
00000250: 4da9 c9b9 85de 003e e8fe af3d ffe6 823d
00000260: ad2b 93ba a4ab 163e feac 0b3e f985 ddbd
00000270: a3f1 cebd 0e54 39bd a977 03be 5e27 1ebe
00000280: 2fc7 1e3e 211d 403e 1171 0c3d 9820 38be
00000290: 2fb4 213e 53e2 e1bd 3219 1abe 556d 9cbc
000002a0: aaa8 ecbc 5668 cebd ad71 443e 44c4 48bd
000002b0: 41a7 153e 164b 9e3d 0bd6 57bd 4f97 133d
000002c0: 1054 443e d8c3 32be cc9d 163d 8ca6 22be
000002d0: ff7a 923c b672 1e3e e0fd 45be e0bd e3bd
000002e0: bfb8 92bc a7b0 693d e997 b03c 130f d8bd
000002f0: 5720 ddbd 476c 913d 49c6 d33d 2121 da3d
00000300: ffec 2f3e e0df 983d 7069 81bd d1e1 c1bb
00000310: 537e 1c3e f9f4 92bd f15b ed3d 724f fcbd
00000320: 765f 043e e1a6 253e 9ff7 76bc 7215 5bbd
00000330: d8d9 cc3c 55cb 213e 3010 363d 82ed 17be
00000340: b62c f0bd 0978 3abe 8c55 b6bd 7a05 febd
00000350: 7790 e23c d992 53bd 4086 1abe d804 1fbe
00000360: 5ce2 3c3e d718 0e3e c5f4 2fbe a06d e33d
00000370: 1fd4 a8bd a832 ac3d 4d50 ddbd c8e5 f4bd
00000380: 0c90 d9bc 2f2f 293e b6f7 efbc a8b7 7e3d
00000390: 5eb4 dfbd 967e f7bd c042 ca3d fc19 a1bd
000003a0: 69b7 cabd 5a8c d4bd 68a6 a8bd 27e0 9e3d
000003b0: bbeb 83bc e1dc 3a3e 1bae bfbd 680c a6bd
000003c0: 18f2 ccbb 222f e63c e8c7 37bd 21ff 543d
000003d0: 5d88 0ebe a202 ce3d efff 2bbe bde8 493d
000003e0: 001d 533c 1770 a6bb 2d8c e1bc 6935 413e
000003f0: 699b 40be 9d0c d73d 8321 0bbe ffc9 1b3d

enc1.0.bias f4 [64]
-0.13578986 0.02604613 0.062646255 0.18133192 0.10638468 0.12913963 -0.074624866 0.1375375
0.17722149 0.11541338 -0.020425312 -0.17502868 -0.18257035 0.14068505 0.09695282 -0.05315874
0.110947095 -0.0470572 -0.13935117 0.05772453 -0.1857333 -0.020097625 -0.0417636 0.17020164
-0.15290368 -0.18111481 0.17185555 -0.11156524 0.031022206 0.006946908 0.15783289 -0.10869202
-0.08181936 -0.07792618 -0.07264948 -0.011760941 -0.19163796 0.10882591 0.038609568 -0.08880954
0.067070924 0.049706325 -0.07251755 -0.16119003 0.037983123 0.16140711 -0.020062873 0.15484709
0.06993916 -0.016016569 -0.15618977 0.17746058 0.059801992 -0.09153505 -0.016526269 -0.05196213
0.13702604 0.03158979 0.02618162 -0.08822128 -0.15415129 -0.14849664 0.07466482 0.15260804
00000000: 7f0c 0bbe b25e d53c ae4c 803d 13af 393e
00000010: 36e0 d93d 2e3d 043e ecd4 98bd a1d6 0c3e
00000020: 8d79 353e da5d ec3d fc52 a7bc b83a 33be
00000030: b9f3 3abe be0f 103e 338f c63d fbbc 59bd
00000040: 3b38 e33d 0dbf 40bd 13b2 0ebe 8f70 6c3d
00000050: df30 3ebe c6a3 a4bc 4f10 2bbd 5749 2e3e
00000060: c892 1cbe 2976 39be e7fa 2f3e 517c e4bd
00000070: 4822 fe3c e3a2 e33b f29e 213e ec99 debd
00000080: e990 a7bd c397 9fbd 40c9 94bd f6b0 40bc
00000090: be3c 44be 1ee0 de3d 1125 1e3d c7e1 b5bd
000000a0: 7b5c 893d dc98 4b3d 1584 94bd 000f 25be
000000b0: 3194 1b3d e847 253e e55a a4bc 3c90 1e3e
000000c0: 433c 8f3d 2e35 83bc 36f0 1fbe 3ab8 353e
000000d0: eff2 743d ba76 bbbd 1962 87bc 3ed6 54bd
000000e0: 8e50 0c3e 4c64 013d d67a d63c 5cad b4bd
000000f0: d6d9 1dbe 810f 18be dfe9 983d 4845 1c3e

enc1.2.weight f4 [64, 64, 3, 3]
0.037892308 -0.0051882747 -0.020097498 -0.03404021 -0.021412933 0.018837588 -0.020003716 -0.009322887
0.033412207 0.017998578 0.035388824 0.035866432 -0.032678656 0.027161984 -0.030517854 0.014837999
0.0005697943 -0.020277938 0.023429018 -0.015925355 -0.0111574605 0.032311793 -0.00018252901 0.005055452
-0.0089781815 -0.020888986 -0.027158886 0.006976855 0.039438345 -0.00078735576 -0.022236476 0.024029747
-0.038466863 -0.015260728 0.03895234 -0.039119862 -0.03175257 0.02594132 -0.04226643 -0.02489464
0.009139651 -0.04099827 -0.0316186 0.003827214 -0.012017887 0.040360328 -0.0031777893 -0.015695548
-0.023823485 0.03329681 -0.009282269 -0.027650762 0.026804196 -0.022091914 -0.020165104 -0.017900916
0.0020765488 -0.019915972 0.020915754 0.01106258 -0.020421952 0.034631275 0.015649676 -0.021753512
0.029686045 0.027768604 -0.03195681 -0.036522582 0.026699727 -0.0047880136 -0.027359057 0.032658927
0.028877106 0.027596045 -0.029087659 -0.027135555 0.017723251 -0.005335928 0.038215734 -0.032871608
-0.043602042 -0.02344658 -0.018262027 -0.015375145 0.0023614059 -0.022957403 0.031268515 0.013622426
0.017409308 0.023464117 0.0025547314 0.01083727 0.016228324 -0.035881042 0.010390338 0.018249422
0.024039358 -0.029888723 -0.02205097 0.025331905 -0.015919736 0.022783022 -0.010820712 -0.021016788
0.0065744324 -0.0009957701 -0.007933056 0.03539352 -0.009597331 -0.01733514 -0.0057378463 -0.00925572
0.024639476 -0.010525071 -0.015855948 -0.014370015 0.018815935 -0.03105946 0.018193735 -0.01670454
-0.032425355 -0.020390833 0.0007541931 -0.0134739755 -0.016030235 0.009164519 0.003739179 -0.021275625
0.00079216383 0.030585041 -0.028029412 -0.038684793 -0.008888992 0.020549513 -0.031485304 -0.029824108
-0.0010440847 -0.019043809 -0.0020955205 -0.018476551 0.0025653145 -0.005218958 0.025116187 -0.0016382834
0.0067334976 -0.02185369 0.032698568 0.04001425 0.0052651763 0.006615547 0.027302325 0.024095342
0.013828518 -0.03971063 -0.0133728655 -0.03910178 0.020932171 0.015378098 -0.014321748 0.0057552373
-0.0064233807 -0.012019332 -0.014120193 0.026900535 -0.035436206 -0.00381551 0.006657085 0.028325114
-0.026658338 0.0037689514 -0.006809272 0.033106297 -0.004609893 0.031600673 0.0014445826 0.0074256435
0.0060856286 -0.013236537 -0.020152023 -0.020320356 -0.028498707 0.013277887 -0.030472362 0.0030189455
0.04140418 0.043650657 0.023536777 -0.008490887 -0.020197142 0.009006778 0.010361755 0.019782916
0.027226936 -0.016133348 0.032622103 -0.009228738 0.029746998 0.018832555 0.026629472 -0.018746495
-0.023673307 -0.017020006 0.017500995 -0.011316812 0.005048047 -0.025671558 0.037455928 -0.013402036
0.030733537 -0.002600263 -0.026692614 -0.01753425 -0.004097362 0.010354845 -0.003933217 -0.01591954
0.033977762 0.0039026933 0.0052589546 -0.029947141 0.026674522 0.032256678 0.0087156035 0.042831
-0.035762567 -0.021325428 0.00064424926 0.003778727 0.022427583 0.011176636 -0.023788493 -0.008104033
-0.030383866 0.031035852 0.008774248 -0.01327461 -0.0045151734 0.0030745713 0.021302612 0.025608204
-0.03801805 0.030471483 0.00021382155 0.026968433 -0.013121313 -0.03329278 0.027376812 0.03789009
0.035826147 -0.031635463 -0.0030529883 0.012802512 0.0017968727 0.0083721755 -0.002424221 -0.0065481747
00000000: f734 1b3d 6702 aabb 82a3 a4bc bf6d 0bbd
00000010: 2d6a afbc 4951 9a3c d5de a3bc 06bf 18bc
00000020: 3ddb 083d c171 933c dff3 103d aee8 123d
00000030: 0eda 05bd cf82 de3c 9400 fabc 141b 733c
00000040: 405e 153a eb1d a6bc 36ee bf3c e475 82bc
00000050: c8cd 36bc 5f59 043d 4265 3fb9 35a8 a53b
00000060: 3919 13bc 611f abbc 507c debc 1a9e e43b
00000070: 1a8a 213d 8d66 4eba 4529 b6bc 08da c43c
00000080: 6e8f 1dbd 2208 7abc 7d8c 1f3d 263c 20bd
00000090: fc0e 02bd e482 d43c 901f 2dbd d8ef cbbc
000000a0: 7abe 153c cded 27bd 8182 01bd ffd1 7a3b
000000b0: ace6 44bc df50 253d 7542 50bb f393 80bc
000000c0: 7829 c3bc 3c62 083d a814 18bc da83 e2bc
000000d0: 7994 db3c 1afa b4bc 4a31 a5bc f1a4 92bc
000000e0: b516 083b d226 a3bc 8457 ab3c d33f 353c
000000f0: f04b a7bc 86d9 0d3d c033 803c 6c34 b2bc
00000100: 2630 f33c fc7a e33c 25e5 02bd b498 15bd
00000110: 63b9 da3c c5e4 9cbb 1a20 e0bc 5ec5 053d
00000120: ae8f ec3c 1a11 e23c 3e49 eebc 624b debc
00000130: 5a30 913c 02d9 aebb 1a88 1c3d 61a4 06bd
00000140: 0e98 32bd 0b13 c0bc 3f9a 95bc 08e8 7bbc
00000150: d1c1 1a3b 2a11 bcbc 6a13 003d 9930 5f3c
00000160: f79d 8e3c d237 c03c 486d 273b ce8e 313c
00000170: 43f1 843c 00f8 12bd 3c3c 2a3c d07f 953c
00000180: 30ee c43c 32d9 f4bc 3ca4 b4bc db84 cf3c
00000190: 1b6a 82bc 76a3 ba3c 5b49 31bc 662b acbc
000001a0: 566e d73b 8084 82ba a6f9 01bc ccf8 103d
000001b0: 203e 1dbc 6c02 8ebc 8b04 bcbb 4ea5 17bc
000001c0: bad8 c93c 5971 2cbc 55e4 81bc 3670 6bbc
000001d0: e023 9a3c 6970 febc 070b 953c f6d7 88bc
000001e0: 73d0 04bd ad0a a7bc 0bb5 453a f3c1 5cbc
000001f0: d751 83bc c726 163c 040d 753b 384a aebc
00000200: 37a9 4f3a 7b8d fa3c f09d e5bc f273 1ebd
00000210: 22a3 11bc 7457 a83c bcf6 00bd b051 f4bc
00000220: abd9 88ba c301 9cbc 0055 09bb 235c 97bc
00000230: d61e 283b cb03 abbb 76c0 cd3c abbb d6ba
00000240: aca4 dc3b 8206 b3bc efee 053d fbe5 233d
00000250: 8087 ac3b 3bc7 d83b 20a9 df3c 9863 c53c
00000260: 0291 623c 9da7 22bd dd19 5bbc 3029 20bd
00000270: f279 ab3c 6bf4 7b3c c4a5 6abc 6e96 bc3b
00000280: 397b d2bb bbec 44bc 6258 67bc 835e dc3c
00000290: 8e25 11bd a30d 7abb ad23 da3b 120a e83c
000002a0: 9662 dabc 8300 773b 5020 dfbb 789a 073d
000002b0: 960e 97bb b56f 013d 2658 bd3a d052 f33b
000002c0: f469 c73b 0fde 58bc db15 a5bc e076 a6bc
000002d0: 1f76 e9bc 7f8b 593c 2da1 f9bc 80d9 453b
000002e0: 6e97 293d 08cb 323d 33d0 c03c 5c1d 0bbc
000002f0: 7a74 a5bc 2a91 133c 5ac4 293c c80f a23c
00000300: 060b df3c 152a 84bc c19e 053d 2234 17bc
00000310: faaf f33c bb46 9a3c 0d26 da3c 4092 99bc
00000320: 86ee c1bc 8a6d 8bbc 3f5e 8f3c 266a 39bc
00000330: 166a a53b 294d d2bc 636b 193d 3794 5bbc
00000340: e6c4 fb3c 2d69 2abb 78aa dabc fda3 8fbc
00000350: 2a43 86bb 5ea7 293c 37e2 80bb b269 82bc
00000360: 442c 0b3d 54c4 7f3b 4f53 ac3b b553 f5bc
00000370: 8784 da3c 941f 043d e4cb 0e3c 8f6f 2f3d
00000380: c57b 12bd aab2 aebc d6e2 283a 85a4 773b
00000390: 0dba b73c 361e 373c 16e0 c2bc c7c6 04bc
000003a0: 96e7 f8bc e63e fe3c ddc1 0f3c c07d 59bc
000003b0: 05f4 93bb bf7e 493b d182 ae3c 4cc8 d13c
000003c0: d1b8 1bbd 559f f93c 4935 6039 e7ec dc3c
000003d0: c7fa 56bc 035e 08bd 5645 e03c a432 1b3d
000003e0: 70be 123d 3094 01bd a514 48bb a1c1 513c
000003f0: 0b85 eb3a 732b 093c aedf 1ebb 1292 d6bb

enc1.2.bias f4 [64]
0.033117034 -0.0060058665 -0.040107574 0.0018966809 -0.006123725 0.011864985 0.035212807 -0.020476257
-0.010332387 -0.0014018235 0.030526184 -0.031904336 -0.012825304 -0.016387727 0.01999468 -0.022692801
0.015306125 0.03961183 0.0356371 -0.04276419 -0.019313527 0.025572881 -0.023005875 0.038422234
-0.016560018 0.0031668951 0.02158715 -0.028616888 -0.020638444 0.022539051 0.0061706016 -0.0016753236
-0.004943197 0.037111256 0.023684077 0.03869657 0.038854305 0.01998914 0.024969747 0.0076706987
0.03934412 0.022599773 0.00076293456 -0.022138562 -0.00303437 0.0046320283 -0.025424851 -0.019542823
-0.033576712 0.027472109 0.041689735 0.036334053 -0.030651232 -0.015247855 -0.028560556 0.012517442
-0.015510242 0.011849787 0.038434777 0.016046897 0.0114655625 -0.022830851 0.012856554 0.020959027
00000000: baa5 073d dccc c4bb d747 24bd 0d9a f83a
00000010: 87a9 c8bb 5b65 423c 4e3b 103d d3bd a7bc
00000020: 2c49 29bc 64bd b7ba 0c12 fa3c 1fae 02bd
00000030: 3921 52bc 8e3f 86bc e2cb a33c 41e6 b9bc
00000040: 8bc6 7a3c 0440 223d 35f8 113d 8129 2fbd
00000050: 6737 9ebc 387e d13c d176 bcbc a260 1d3d
00000060: e0a8 87bc af8b 4f3b 89d7 b03c f76d eabc
00000070: f411 a9bc d1a3 b83c c232 ca3b 8896 dbba
00000080: 8bfa a1bb f901 183d 1c05 c23c 4b80 1e3d
00000090: b125 1f3d 44c0 a33c 5b8d cc3c 7c5a fb3b
000000a0: 4d27 213d 2923 b93c acff 473a ee5b b5bc
000000b0: 48dc 46bb 45c8 973b c747 d0bc 4518 a0bc
000000c0: bc87 09bd 300d e13c dbc2 2a3d 04d3 143d
000000d0: 4b18 fbbc 24d2 79bc d4f7 e9bc f515 4d3c
000000e0: ac1e 7ebc 9c25 423c c96d 1d3d c874 833c
000000f0: 0eda 3b3c c407 bbbc 4ca4 523c 44b2 ab3c

dec1.0.weight f4 [64, 64, 3, 3]
0.04104183 -0.014595783 0.0005891518 -0.029354947 0.02216326 0.0056698103 0.040736496 0.022444095
0.016577594 -0.02355532 -0.022208635 -0.005515105 -0.0035753162 0.03828876 -0.0023491522 -0.03502634
-0.031566463 -0.017493973 0.0022023371 0.000580887 0.019329768 0.016901672 -0.030198008 0.029904053
0.03742474 -0.036339447 0.015459935 0.002838727 -0.031116933 -0.0186213 0.014021966 -0.019632312
-0.026759693 0.033373464 -0.03131302 -0.032793436 0.04099014 0.021250416 0.01842948 -0.0079415105
-0.035705987 0.001012878 -0.04258857 -0.04307221 0.012402694 0.012633175 2.4240475e-05 0.031343054
0.06537938 0.015274771 0.044562235 0.05228025 0.03358792 0.03669043 -0.035517283 -0.0022133114
-0.016114905 0.00781951 0.038843963 0.03054883 0.022143576 -0.0060219266 -0.024560876 -0.019496178
0.013741682 -0.039937977 0.0049728183 -0.030578801 -0.0063595143 -0.01903319 0.012719649 -0.036180396
-0.04372958 0.013982199 -0.011128122 -0.017108407 -0.006896995 -0.006325794 -0.033115264 -0.008518967
-0.01980785 0.014929599 -0.0015907014 0.018701253 0.028386232 -0.030217543 -0.002811813 -0.019784663
-0.037954822 0.024359861 0.024375046 -0.041862555 -0.008557323 0.03875059 0.037876327 -0.034910847
-0.018367749 -0.002622292 -0.01338368 -0.005150627 0.034247603 -0.011660526 -0.0045990413 0.002305286
0.020227116 -0.023109399 0.037256874 0.014705366 -0.024970595 0.0024272068 -0.008750848 -0.028675886
0.0123281 -0.029967947 0.006534434 0.031676866 0.005691807 0.013006693 -0.032829177 0.039731517
0.005710016 0.0018138539 0.012828371 -0.017689284 -0.008537467 0.024935246 -0.020293934 -0.04034608
0.024119046 0.03316503 0.040403992 -0.0053971247 -0.036630873 -0.017667703 -0.03238601 -0.00963146
0.03400298 -0.039622214 0.0334424 0.039046224 -0.033453163 0.00873168 0.052711897 0.042543184
0.0005196415 0.03910804 -0.020576373 0.025419572 -0.029026432 0.035807695 -0.0020364106 -0.020147655
0.0035338446 0.009300183 -0.0004449508 0.047077794 0.027123252 0.017020103 0.029356003 0.057436194
0.012015732 0.02224681 -0.03290972 0.020753708 -0.027095279 -0.007967305 0.019187817 -0.010821045
-0.010924201 -0.048249714 -0.005204353 0.016322857 -0.029927311 0.012806049 -0.013358152 0.006560127
0.038110066 0.032221958 -0.029393591 -0.030951846 -0.0067121782 0.02864262 0.023037897 0.02442624
-0.03395929 -0.016340293 0.008396182 -0.005627154 -0.011872771 -0.03420125 -0.021959668 -0.04175196
0.03259555 -0.0064989473 0.03087665 0.022328043 -0.018514369 0.014916385 0.0015421523 -0.031599186
0.03220192 0.02936442 0.030902218 -0.02201442 0.013027944 -0.025877628 -0.018367562 0.021450544
-0.014764526 0.028042324 -0.013558448 0.03185153 0.04087019 0.002472651 0.030667605 0.00836607
-0.02121871 0.0012951284 -0.025573708 0.025843013 0.017174711 0.0064397445 0.012674275 -0.015838297
-0.043740556 -0.0025028843 0.01666693 -0.043371238 -0.020431172 0.018528584 0.03474431 0.04139401
0.010141091 0.02184349 0.020285442 -0.038843308 -0.02099062 0.027137224 0.02329817 0.0355145
-0.016677659 -0.016282434 0.022363406 0.0022182665 0.020309648 -0.026068237 -0.016235761 -0.032840215
0.03960353 0.034874868 0.04232896 0.022118853 0.037298687 -0.0051538874 0.018237095 0.024892846
00000000: 7a1b 283d 2723 6fbc 4f71 1a3a c979 f0bc
00000010: ba8f b53c d1c9 b93b 50db 263d aedc b73c
00000020: bccd 873c 16f7 c0bc e2ee b5bc 0eb8 b4bb
00000030: da4f 6abb add4 1c3d 3cf4 19bb c877 0fbd
00000040: d64b 01bd 854f 8fbc 1655 103b ab46 183a
00000050: 7659 9e3c 6075 8a3c d061 f7bc 58f9 f43c
00000060: af4a 193d acd8 14bd ab4b 7d3c f009 3a3b
00000070: f0e8 febc b28b 98bc 63bc 653c f1d3 a0bc
00000080: 2537 dbbc 9db2 083d 1542 00bd 6952 06bd
00000090: 47e5 273d 5a15 ae3c 6cf9 963c 1c1d 02bc
000000a0: 7140 12bd 8cc2 843a 5a71 2ebd 7c6c 30bd
000000b0: ab34 4b3c 60fb 4e3c 0658 cb37 9361 003d
000000c0: a0e5 853d 0843 7a3c e486 363d d123 563d
000000d0: 7d93 093d b448 163d 927a 11bd 340d 11bb
000000e0: 6803 84bc 671d 003c d91a 1f3d 8a41 fa3c
000000f0: 7266 b53c 9553 c5bb e433 c9bc 73b6 9fbc
00000100: cb24 613c 0196 23bd 06f3 a23b 6580 fabc
00000110: 7963 d0bb 7eeb 9bbc 1366 503c e531 14bd
00000120: ca1d 33bd 9815 653c ba52 36bc ee26 8cbc
00000130: 3000 e2bb 9b48 cfbb dfa3 07bd 2393 0bbc
00000140: 1244 a2bc 479b 743c 157f d0ba 5f33 993c
00000150: 3e8a e83c c88a f7bc 6546 38bb 7213 a2bc
00000160: 8476 1bbd 558e c73c 2dae c73c 1278 2bbd
00000170: 0434 0cbc f0b8 1e3d 3524 1b3d adfe 0ebd
00000180: f677 96bc c2da 2bbb 3947 5bbc 97c6 a8bb
00000190: 3747 0c3d ca0b 3fbc 8eb3 96bb 4814 173b
000001a0: 56b3 a53c ec4f bdbc aa9a 183d c7ee 703c
000001b0: 228f ccbc c611 1f3b b75f 0fbc b1e9 eabc
000001c0: cdfb 493c 577f f5bc ce1e d63b 9abf 013d
000001d0: 5682 ba3b 061a 553c e377 06bd 84bd 223d
000001e0: 161b bb3b d6be ed3a 162e 523c 1ee9 90bc
000001f0: bbe0 0bbc 0045 cc3c 773f a6bc ee41 25bd
00000200: 4e95 c53c 0ed8 073d a87e 253d 5dda b0bb
00000210: 410a 16bd dcbb 90bc 31a7 04bd 45cd 1dbc
00000220: b546 0b3d e74a 22bd e6fa 083d efee 1f3d
00000230: 2f06 09bd 520f 0f3c 6ee8 573d c341 2e3d
00000240: 8d38 083a c12f 203d c88f a8bc b53c d03c
00000250: d7c8 edbc 17ab 123d 4d75 05bb b20c a5bc
00000260: 1398 673b cb5f 183c 4948 e9b9 a5d4 403d
00000270: 9531 de3c be6d 8b3c 007c f03c 3742 6b3d
00000280: a2dd 443c f13e b63c 58cc 06bd ae03 aa3c
00000290: ebf6 ddbc 4d89 02bc c52f 9d3c c14a 31bc
000002a0: 6cfb 32bc 7ea1 45bd 4789 aabb 83b7 853c
000002b0: 1f2a f5bc 76d0 513c 26dc 5abc 55f6 d63b
000002c0: 4d19 1c3d 2cfb 033d d4ca f0bc ba8e fdbc
000002d0: d5f1 dbbb eea3 ea3c f9b9 bc3c 8a19 c83c
000002e0: e518 0bbd 14dc 85bc 2490 093c fd63 b8bb
000002f0: 0386 42bc 9c16 0cbd c3e4 b3bc 1a04 2bbd
00000300: e982 053d 1ff5 d4bb 07f1 fc3c 4de9 b63c
00000310: 72ab 97bc da63 743c 0b22 ca3a 266e 01bd
00000320: 29e6 033d a78d f03c a626 fd3c 9657 b4bc
00000330: 2873 553c 52fd d3bc 9277 96bc 0db9 af3c
00000340: e9e6 71bc 04b9 e53c 4124 5ebc c076 023d
00000350: 8067 273d 330c 223b a13a fb3c d711 093c
00000360: dcd2 adbc 4cc1 a93a f47f d1bc bab4 d33c
00000370: fbb1 8c3c 7e04 d33b c3a7 4f3c 51bf 81bc
00000380: 4c29 33bd 6e07 24bb 1689 883c 0aa6 31bd
00000390: 465f a7bc 42c9 973c 0d50 0e3d c48c 293d
000003a0: d226 263c 1ef1 b23c a82d a63c 291a 1fbd
000003b0: 85f4 abbc e24e de3c cedb be3c a777 113d
000003c0: 969f 88bc bd62 85bc 7633 b73c 5660 113b
000003d0: 6b60 a63c 0e8d d5bc dc00 85bc 7683 06bd
000003e0: 5037 223d f3d8 0e3d 2261 2d3d 9932 b53c
000003f0: 82c6 183d f1e1 a8bb f665 953c 15ec cb3c

dec1.0.bias f4 [64]
-0.0014168537 0.015901508 0.027971411 -0.021245688 -0.034982044 0.015427209 -0.0025512006 0.0032711925
-0.010605425 0.0251011 -0.04154823 0.0041274773 -0.030248113 0.038860418 -0.035084665 -7.8968806e-05
0.01596643 -0.0018809057 0.008801274 0.012668723 -0.031521097 -0.025205849 0.040592387 -0.026745768
-0.01927571 0.01392135 0.005655989 -0.038948227 -0.01809811 -0.03276226 0.036381166 0.021832196
-0.03312836 0.0153584955 0.008701066 0.005462366 0.042955063 -0.031405207 -0.006263806 0.036397606
0.02722172 0.035645276 -0.026346423 -0.011897865 0.006220141 0.0025117132 -0.033873167 -0.011867662
0.003678787 0.026991628 0.0015453785 -0.031650294 0.04438307 0.03160586 -0.0052064923 0.030462313
-0.002612528 0.041479144 -0.021938773 0.027948543 0.04023043 0.008855073 0.016263882 -0.03792488
00000000: b9b5 b9ba e143 823c 4d24 e53c 700b aebc
00000010: 5549 0fbd 68c2 7c3c 0b32 27bb 8161 563b
00000020: 60c2 2dbc d2a0 cd3c 7a2e 2abd ca3f 873b
00000030: e4ca f7bc 1a2c 1f3d f0b4 0fbd 0e9c a5b8
00000040: 08cc 823c b988 f6ba 3833 103c 7a90 4f3c
00000050: 441c 01bd 7f7c cebc 3444 263d f119 dbbc
00000060: 18e8 9dbc 6016 643c e055 b93b 2d88 1fbd
00000070: 7d42 94bc b831 06bd 6b04 153d 6fd9 b23c
00000080: 9ab1 07bd 33a2 7b3c ea8e 0e3c a6fd b23b
00000090: a6f1 2f3d bfa2 00bd 9d40 cdbb a815 153d
000000a0: 1600 df3c c800 123d 74d4 d7bc 43ef 42bc
000000b0: 53d2 cb3b 8e9b 243b 97be 0abd 9570 42bc
000000c0: ce17 713b 8c1d dd3c 4c8e ca3a bda3 01bd
000000d0: 06cb 353d 2575 013d 399b aabb 1a8c f93c
000000e0: f236 2bbb 09e6 293d f1b8 b3bc 58f4 e43c
000000f0: aac8 243d de14 113c d53b 853c 1e57 1bbd

dec1.2.weight f4 [1, 64, 1, 1]
-0.090017654 0.05992622 0.014207577 -0.14207822 0.051489472 0.09292775 -0.080286205 0.14638901
-0.09751548 -0.03022573 -0.07113339 -0.046462476 -0.04145607 -0.077031314 -0.08554865 -0.097674854
-0.045862183 0.10430318 0.00784035 0.10513071 -0.02540121 0.035687562 -0.047435213 0.08063377
0.070182174 -0.04925612 0.005623599 -0.046055995 -0.051525045 0.10160224 0.1254341 -0.12908766
0.09089126 -0.078002654 -0.035407417 0.113568485 0.11683862 -0.10415256 0.09991202 0.10103654
-0.044147495 0.045416422 -0.09607412 -0.06775699 0.013306565 0.14987819 -0.08769223 0.023650102
0.055574566 0.10147734 -0.055018473 0.08774168 0.055343047 0.088240124 -0.07923622 -0.10406821
0.1022793 0.10096497 0.11598847 0.11093854 0.055025656 0.09100979 -0.10930899 0.06210926
00000000: 2d5b b8bd 3275 753d e6c6 683c f47c 11be
00000010: a0e6 523d e750 be3d 186d a4bd 00e7 153e
00000020: 32b6 c7bd f39b f7bc 62ae 91bd 704f 3ebd
00000030: d7cd 29bd 98c2 9dbd 2134 afbd c109 c8bd
00000040: fcd9 3bbd e89c d53d d074 003c c54e d73d
00000050: 3316 d0bc 1f2d 123d 6d4b 42bd 5123 a53d
00000060: acbb 8f3d c9c0 49bd 2b46 b83b 36a5 3cbd
00000070: ed0b 53bd d614 d03d cc71 003e 8e2f 04be
00000080: 3225 ba3d dbbf 9fbd 5e07 11bd 9896 e83d
00000090: 1649 ef3d f04d d5bd ac9e cc3d 3fec ce3d
000000a0: 01d4 34bd 9206 3a3d 82c2 c4bd 2dc4 8abd
000000b0: c703 5a3c ab79 193e fc97 b3bd dcbd c13c
000000c0: 28a2 633d 5ad3 cf3d 0d5b 61bd e9b1 b33d
000000d0: 64af 623d 3db7 b43d 9946 a2bd b721 d5bd
000000e0: cf77 d13d b9c6 ce3d 5d8b ed3d bf33 e33d
000000f0: 9562 613d 5763 ba3d 64dd dfbd 4866 7e3d
